…
2020-01-18 11:39:25.547265: I tensorflow/core/platform/cpu_feature_guard.cc:142] Your CPU supports instructions that this TensorFlow binary was not compiled to use: AVX2 FMA
2020-01-18 11:39:25.698011: I tensorflow/compiler/xla/service/service.cc:168] XLA service 0x7fa8e1cb7f50 initialized for platform Host (this does not guarantee that XLA will be used). Devices:
2020-01-18 11:39:25.698034: I tensorflow/compiler/xla/service/service.cc:176]   StreamExecutor device (0): Host, Default Version
Model: "sequential_1"
_________________________________________________________________
Layer (type)                 Output Shape              Param #
=================================================================
conv2d_1 (Conv2D)            (None, 1, 991, 8)         168
_________________________________________________________________
max_pooling2d_1 (MaxPooling2 (None, 1, 495, 8)         0
_________________________________________________________________
dropout_1 (Dropout)          (None, 1, 495, 8)         0
_________________________________________________________________
conv2d_2 (Conv2D)            (None, 1, 486, 16)        1296
_________________________________________________________________
batch_normalization_1 (Batch (None, 1, 486, 16)        64
_________________________________________________________________
max_pooling2d_2 (MaxPooling2 (None, 1, 243, 16)        0
_________________________________________________________________
dropout_2 (Dropout)          (None, 1, 243, 16)        0
_________________________________________________________________
conv2d_3 (Conv2D)            (None, 1, 234, 32)        5152
_________________________________________________________________
batch_normalization_2 (Batch (None, 1, 234, 32)        128
_________________________________________________________________
max_pooling2d_3 (MaxPooling2 (None, 1, 117, 32)        0
_________________________________________________________________
dropout_3 (Dropout)          (None, 1, 117, 32)        0
_________________________________________________________________
conv2d_4 (Conv2D)            (None, 1, 108, 64)        20544
_________________________________________________________________
batch_normalization_3 (Batch (None, 1, 108, 64)        256
_________________________________________________________________
max_pooling2d_4 (MaxPooling2 (None, 1, 54, 64)         0
_________________________________________________________________
dropout_4 (Dropout)          (None, 1, 54, 64)         0
_________________________________________________________________
flatten_1 (Flatten)          (None, 3456)              0
_________________________________________________________________
dense_1 (Dense)              (None, 50)                172850
_________________________________________________________________
batch_normalization_4 (Batch (None, 50)                200
_________________________________________________________________
dropout_5 (Dropout)          (None, 50)                0
_________________________________________________________________
dense_2 (Dense)              (None, 1)                 51
=================================================================
Total params: 200,709
Trainable params: 200,385
Non-trainable params: 324
_________________________________________________________________
WARNING:tensorflow:From /Users/levialbuquerque/.conda/envs/semb/lib/python3.7/site-packages/tensorflow_core/python/ops/nn_impl.py:183: where (from tensorflow.python.ops.array_ops) is deprecated and will be removed in a future version.
…
